…
: 'mixed', 'disable_alignment_mask': False, 'enable_causal_alignment': True, 'lambda_causal_alignment': 0.5, 'lambda_causal_diagonal': 1.0, 'lambda_causal_sparsity': 0.1, 'alignment_warmup_epochs': 3, 'alignment_compute_freq': 5, 'lambda_cf_contrast': 0.5, 'lambda_cf_effect': 0.3, 'lambda_cf_sensitivity': 0.2, 'enable_cf_explanation': False}
[2026-02-03 08:44:59,325] Start training on data/TVSum/splits.yml: split 0
[2026-02-03 08:44:59,549] Causal Alignment Discovery enabled for TVSum (Intervention Dissimilarity)
[2026-02-03 08:44:59,568] 
Model_VideoSumm(
  (proj_fc_video): Sequential(
    (0): Linear(in_features=1024, out_features=128, bias=True)
    (1): Dropout(p=0.1, inplace=False)
  )
  (proj_fc_text): Sequential(
    (0): Linear(in_features=768, out_features=128, bias=True)
    (1): Dropout(p=0.1, inplace=False)
  )
  (multiway_list): ModuleList(
    (0-1): 2 x MultiWayTransformer(
      (norm1_fused): LayerNorm((128,), eps=1e-05, elementwise_affine=True)
      (attn_fusion): MultiHeadAttention(q_dims=128, k_dims=128, v_dims=128, h_dims=128, o_dims=128, heads=8, p=0.5, bias=True)
      (norm2_video): LayerNorm((128,), eps=1e-05, elementwise_affine=True)
      (ffn_video): FFN(
        (fc1): Linear(in_features=128, out_features=512, bias=True)
        (act): GELU(approximate='none')
        (drop1): Dropout(p=0.5, inplace=False)
        (fc2): Linear(in_features=512, out_features=128, bias=True)
        (drop2): Dropout(p=0.5, inplace=False)
      )
      (norm2_text): LayerNorm((128,), eps=1e-05, elementwise_affine=True)
      (ffn_text): FFN(
        (fc1): Linear(in_features=128, out_features=512, bias=True)
        (act): GELU(approximate='none')
        (drop1): Dropout(p=0.5, inplace=False)
        (fc2): Linear(in_features=512, out_features=128, bias=True)
        (drop2): Dropout(p=0.5, inplace=False)
      )
    )
  )
  (norm_video): LayerNorm((128,), eps=1e-05, elementwise_affine=True)
  (norm_text): LayerNorm((128,), eps=1e-05, elementwise_affine=True)
  (fc_video): Sequential(
    (0): Linear(in_features=128, out_features=128, bias=True)
    (1): ReLU(inplace=True)
    (2): Dropout(p=0.5, inplace=False)
    (3): LayerNorm((128,), eps=1e-05, elementwise_affine=True)
  )
  (fc_video_cls): Linear(in_features=128, out_features=1, bias=True)
  (fc_video_loc): Linear(in_features=128, out_features=2, bias=True)
  (fc_video_ctr): Linear(in_features=128, out_features=1, bias=True)
  (fc_text): Sequential(
    (0): Linear(in_features=128, out_features=128, bias=True)
    (1): ReLU(inplace=True)
    (2): Dropout(p=0.5, inplace=False)
    (3): LayerNorm((128,), eps=1e-05, elementwise_affine=True)
  )
  (fc_text_cls): Linear(in_features=128, out_features=1, bias=True)
  (fc_text_loc): Linear(in_features=128, out_features=2, bias=True)
  (fc_text_ctr): Linear(in_features=128, out_features=1, bias=True)
  (causal_feature_head): Linear(in_features=128, out_features=64, bias=True)
  (spurious_feature_head): Linear(in_features=128, out_features=64, bias=True)
)
[2026-02-03 08:45:02,537] [Train] Epoch: 1/30 Iter: 5/10 Time: 0.593 Data: 0.061 Loss: 0.1661/5.7230/1.2648/0.1666/1.7764/0.3717 Align:0.0000
[2026-02-03 08:45:04,006] [Train] Epoch: 1/30 Iter: 10/10 Time: 0.444 Data: 0.051 Loss: 0.1576/5.7581/1.2021/0.1598/1.5324/0.3568 Align:0.0000
[2026-02-03 08:45:05,579] [Eval]  Epoch: 1/30 F-score: 0.5928/0.5928
…
