…
, 'dropout_fc': 0.5, 'num_layers': 2, 'lambda_contrastive_inter': 0.0, 'lambda_contrastive_intra': 0.0, 'ratio': 0, 'lambda_causal_contrast': 0.5, 'lambda_causal_effect': 0.3, 'lambda_alignment': 1.0, 'lambda_text_necessity': 1.0, 'cf_strategy': 'mixed', 'disable_alignment_mask': False, 'lambda_cf_contrast': 0.5, 'lambda_cf_effect': 0.3, 'lambda_cf_sensitivity': 0.2, 'enable_cf_explanation': True}
[2026-01-21 17:43:20,460] Counterfactual explainability enabled for CNN
[2026-01-21 17:43:20,462] Using default tokenizer.
[2026-01-21 17:43:20,699] 
Model_MSMO(
  (proj_fc_video): Sequential(
    (0): Linear(in_features=2048, out_features=256, bias=True)
    (1): Dropout(p=0.1, inplace=False)
  )
  (proj_fc_text): Sequential(
    (0): Linear(in_features=768, out_features=256, bias=True)
    (1): Dropout(p=0.1, inplace=False)
  )
  (multiway_list): ModuleList(
    (0-1): 2 x MultiWayTransformer(
      (norm1_fused): LayerNorm((256,), eps=1e-05, elementwise_affine=True)
      (attn_fusion): MultiHeadAttention(q_dims=256, k_dims=256, v_dims=256, h_dims=256, o_dims=256, heads=8, p=0.1, bias=True)
      (norm2_video): LayerNorm((256,), eps=1e-05, elementwise_affine=True)
      (ffn_video): FFN(
        (fc1): Linear(in_features=256, out_features=1024, bias=True)
        (act): GELU(approximate='none')
        (drop1): Dropout(p=0.1, inplace=False)
        (fc2): Linear(in_features=1024, out_features=256, bias=True)
        (drop2): Dropout(p=0.1, inplace=False)
      )
      (norm2_text): LayerNorm((256,), eps=1e-05, elementwise_affine=True)
      (ffn_text): FFN(
        (fc1): Linear(in_features=256, out_features=1024, bias=True)
        (act): GELU(approximate='none')
        (drop1): Dropout(p=0.1, inplace=False)
        (fc2): Linear(in_features=1024, out_features=256, bias=True)
        (drop2): Dropout(p=0.1, inplace=False)
      )
    )
  )
  (norm_video): LayerNorm((256,), eps=1e-05, elementwise_affine=True)
  (norm_text): LayerNorm((256,), eps=1e-05, elementwise_affine=True)
  (fc_video): Sequential(
    (0): Linear(in_features=256, out_features=256, bias=True)
    (1): ReLU(inplace=True)
    (2): Dropout(p=0.5, inplace=False)
    (3): Linear(in_features=256, out_features=1, bias=True)
  )
  (fc_text): Sequential(
    (0): Linear(in_features=256, out_features=256, bias=True)
    (1): ReLU(inplace=True)
    (2): Dropout(p=0.5, inplace=False)
    (3): Linear(in_features=256, out_features=1, bias=True)
  )
)
[2026-01-21 17:43:23,179] [Train] Epoch: 1/60 Iter: 5/36 LR: 0.0002 Time: 0.495 Data: 0.009 Loss: 0.1061/0.0000/0.0000/0.0000/10.4410 CF: 10.3349 R1: 0.1915 R2: 0.0351 RL: 0.1705 Cos: 0.0000
[2026-01-21 17:43:25,053] [Train] Epoch: 1/60 Iter: 10/36 LR: 0.0002 Time: 0.435 Data: 0.005 Loss: 0.1009/0.0000/0.0000/0.0000/8.9995 CF: 8.8987 R1: 0.1908 R2: 0.0309 RL: 0.1649 Cos: 0.0000
…
