…
'', 'checkpoint': None, 'test': False, 'num_input_video': 1024, 'num_input_text': 768, 'num_feature': 512, 'num_hidden': 128, 'dropout_video': 0.1, 'dropout_text': 0.1, 'dropout_attn': 0.5, 'dropout_fc': 0.5, 'num_layers': 2, 'lambda_contrastive_inter': 0.1, 'lambda_contrastive_intra': 3.0, 'ratio': 16, 'lambda_causal_contrast': 1.0, 'lambda_causal_effect': 0.5, 'lambda_alignment': 2.0, 'lambda_text_necessity': 2.0, 'cf_strategy': 'mixed'}
[2026-01-21 10:49:49,780] Start training on data/SumMe/splits.yml: split 0
[2026-01-21 10:49:49,912] 
Model_VideoSumm(
  (proj_fc_video): Sequential(
    (0): Linear(in_features=1024, out_features=128, bias=True)
    (1): Dropout(p=0.1, inplace=False)
  )
  (proj_fc_text): Sequential(
    (0): Linear(in_features=768, out_features=128, bias=True)
    (1): Dropout(p=0.1, inplace=False)
  )
  (multiway_list): ModuleList(
    (0-1): 2 x MultiWayTransformer(
      (norm1_fused): LayerNorm((128,), eps=1e-05, elementwise_affine=True)
      (attn_fusion): MultiHeadAttention(q_dims=128, k_dims=128, v_dims=128, h_dims=128, o_dims=128, heads=8, p=0.5, bias=True)
      (norm2_video): LayerNorm((128,), eps=1e-05, elementwise_affine=True)
      (ffn_video): FFN(
        (fc1): Linear(in_features=128, out_features=512, bias=True)
        (act): GELU(approximate='none')
        (drop1): Dropout(p=0.5, inplace=False)
        (fc2): Linear(in_features=512, out_features=128, bias=True)
        (drop2): Dropout(p=0.5, inplace=False)
      )
      (norm2_text): LayerNorm((128,), eps=1e-05, elementwise_affine=True)
      (ffn_text): FFN(
        (fc1): Linear(in_features=128, out_features=512, bias=True)
        (act): GELU(approximate='none')
        (drop1): Dropout(p=0.5, inplace=False)
        (fc2): Linear(in_features=512, out_features=128, bias=True)
        (drop2): Dropout(p=0.5, inplace=False)
      )
    )
  )
  (norm_video): LayerNorm((128,), eps=1e-05, elementwise_affine=True)
  (norm_text): LayerNorm((128,), eps=1e-05, elementwise_affine=True)
  (fc_video): Sequential(
    (0): Linear(in_features=128, out_features=128, bias=True)
    (1): ReLU(inplace=True)
    (2): Dropout(p=0.5, inplace=False)
    (3): LayerNorm((128,), eps=1e-05, elementwise_affine=True)
  )
  (fc_video_cls): Linear(in_features=128, out_features=1, bias=True)
  (fc_video_loc): Linear(in_features=128, out_features=2, bias=True)
  (fc_video_ctr): Linear(in_features=128, out_features=1, bias=True)
  (fc_text): Sequential(
    (0): Linear(in_features=128, out_features=128, bias=True)
    (1): ReLU(inplace=True)
    (2): Dropout(p=0.5, inplace=False)
    (3): LayerNorm((128,), eps=1e-05, elementwise_affine=True)
  )
  (fc_text_cls): Linear(in_features=128, out_features=1, bias=True)
  (fc_text_loc): Linear(in_features=128, out_features=2, bias=True)
  (fc_text_ctr): Linear(in_features=128, out_features=1, bias=True)
  (causal_feature_head): Linear(in_features=128, out_features=64, bias=True)
  (spurious_feature_head): Linear(in_features=128, out_features=64, bias=True)
)
[2026-01-21 10:49:51,032] [Train] Epoch: 1/100 Iter: 5/10 Time: 0.223 Data: 0.016 Loss: 0.1729/5.0578/1.3797/0.0914/4.7347/4.3319 Align:0.8792 Diag:-0.0928 TextEff:0.0736
[2026-01-21 10:49:51,817] [Train] Epoch: 1/100 Iter: 10/10 Time: 0.190 Data: 0.014 Loss: 0.1762/5.3896/1.3644/0.0879/4.4924/4.1741 Align:0.9439 Diag:-0.1601 TextEff:0.0660
[2026-01-21 10:49:52,532] [Train] Epoch: 2/100 Iter: 5/10 Time: 0.174 Data: 0.012 Loss: 0.1827/5.7422/1.3111/0.0856/3.3544/4.1352 Align:0.8947 Diag:-0.2091 TextEff:0.0733
…
 'dropout_text': 0.1, 'dropout_attn': 0.5, 'dropout_fc': 0.5, 'num_layers': 2, 'lambda_contrastive_inter': 0.1, 'lambda_contrastive_intra': 3.0, 'ratio': 16, 'lambda_causal_contrast': 0.5, 'lambda_causal_effect': 0.3, 'lambda_alignment': 1.0, 'lambda_text_necessity': 1.0, 'cf_strategy': 'mixed', 'disable_alignment_mask': False, 'lambda_cf_contrast': 0.5, 'lambda_cf_effect': 0.3, 'lambda_cf_sensitivity': 0.2, 'enable_cf_explanation': False}
[2026-01-22 20:10:46,681] Start training on data/SumMe/splits.yml: split 0
[2026-01-22 20:10:46,849] 
Model_VideoSumm(
  (proj_fc_video): Sequential(
    (0): Linear(in_features=1024, out_features=128, bias=True)
    (1): Dropout(p=0.1, inplace=False)
  )
  (proj_fc_text): Sequential(
    (0): Linear(in_features=768, out_features=128, bias=True)
    (1): Dropout(p=0.1, inplace=False)
  )
  (multiway_list): ModuleList(
    (0-1): 2 x MultiWayTransformer(
      (norm1_fused): LayerNorm((128,), eps=1e-05, elementwise_affine=True)
      (attn_fusion): MultiHeadAttention(q_dims=128, k_dims=128, v_dims=128, h_dims=128, o_dims=128, heads=8, p=0.5, bias=True)
      (norm2_video): LayerNorm((128,), eps=1e-05, elementwise_affine=True)
      (ffn_video): FFN(
        (fc1): Linear(in_features=128, out_features=512, bias=True)
        (act): GELU(approximate='none')
        (drop1): Dropout(p=0.5, inplace=False)
        (fc2): Linear(in_features=512, out_features=128, bias=True)
        (drop2): Dropout(p=0.5, inplace=False)
      )
      (norm2_text): LayerNorm((128,), eps=1e-05, elementwise_affine=True)
      (ffn_text): FFN(
        (fc1): Linear(in_features=128, out_features=512, bias=True)
        (act): GELU(approximate='none')
        (drop1): Dropout(p=0.5, inplace=False)
        (fc2): Linear(in_features=512, out_features=128, bias=True)
        (drop2): Dropout(p=0.5, inplace=False)
      )
    )
  )
  (norm_video): LayerNorm((128,), eps=1e-05, elementwise_affine=True)
  (norm_text): LayerNorm((128,), eps=1e-05, elementwise_affine=True)
  (fc_video): Sequential(
    (0): Linear(in_features=128, out_features=128, bias=True)
    (1): ReLU(inplace=True)
    (2): Dropout(p=0.5, inplace=False)
    (3): LayerNorm((128,), eps=1e-05, elementwise_affine=True)
  )
  (fc_video_cls): Linear(in_features=128, out_features=1, bias=True)
  (fc_video_loc): Linear(in_features=128, out_features=2, bias=True)
  (fc_video_ctr): Linear(in_features=128, out_features=1, bias=True)
  (fc_text): Sequential(
    (0): Linear(in_features=128, out_features=128, bias=True)
    (1): ReLU(inplace=True)
    (2): Dropout(p=0.5, inplace=False)
    (3): LayerNorm((128,), eps=1e-05, elementwise_affine=True)
  )
  (fc_text_cls): Linear(in_features=128, out_features=1, bias=True)
  (fc_text_loc): Linear(in_features=128, out_features=2, bias=True)
  (fc_text_ctr): Linear(in_features=128, out_features=1, bias=True)
  (causal_feature_head): Linear(in_features=128, out_features=64, bias=True)
  (spurious_feature_head): Linear(in_features=128, out_features=64, bias=True)
  (diff_causal_attribution): DifferentiableCausalAttribution(
    (importance_scorer): Sequential(
      (0): Linear(in_features=128, out_features=64, bias=True)
      (1): LayerNorm((64,), eps=1e-05, elementwise_affine=True)
      (2): ReLU()
      (3): Dropout(p=0.1, inplace=False)
      (4): Linear(in_features=64, out_features=1, bias=True)
    )
    (intervention_strength): Sequential(
      (0): Linear(in_features=128, out_features=32, bias=True)
      (1): ReLU()
      (2): Linear(in_features=32, out_features=1, bias=True)
      (3): Sigmoid()
    )
    (effect_aggregator): Sequential(
      (0): Linear(in_features=256, out_features=128, bias=True)
      (1): ReLU()
      (2): Linear(in_features=128, out_features=1, bias=True)
    )
  )
)
[2026-01-22 20:10:49,126] [Train] Epoch: 1/250 Iter: 5/5 Time: 0.454 Data: 0.044 Loss: 0.1842/5.2644/1.3094/0.1837/4.4197/3.8908 Align:0.3883 Diag:-0.1346 TextEff:0.0744
[2026-01-22 20:10:49,291] [Eval]  Epoch: 1/250 F-score: 0.4828/0.4828


[2026-01-22 20:10:50,824] [Train] Epoch: 2/250 Iter: 5/5 Time: 0.380 Data: 0.030 Loss: 0.1536/5.1059/1.2060/0.1676/2.8125/3.9937 Align:0.4075 Diag:-0.1581 TextEff:0.0757
…
