…
lambda_causal_contrast': 0.0, 'lambda_causal_effect': 0.0, 'lambda_alignment': 1.0, 'lambda_text_necessity': 1.0, 'cf_strategy': 'mixed', 'disable_alignment_mask': True, 'enable_causal_alignment': False, 'lambda_causal_alignment': 0.5, 'lambda_causal_diagonal': 1.0, 'lambda_causal_sparsity': 0.1, 'alignment_warmup_epochs': 5, 'alignment_compute_freq': 10, 'lambda_cf_contrast': 0.5, 'lambda_cf_effect': 0.3, 'lambda_cf_sensitivity': 0.2, 'enable_cf_explanation': False}
[2026-02-20 09:56:02,895] Using default tokenizer.
[2026-02-20 09:56:11,512] 
Model_BLiSS(
  (proj_fc_video): Sequential(
    (0): Linear(in_features=512, out_features=128, bias=True)
    (1): Dropout(p=0.1, inplace=False)
  )
  (proj_fc_text): Sequential(
    (0): Linear(in_features=768, out_features=128, bias=True)
    (1): Dropout(p=0.1, inplace=False)
  )
  (multiway_list): ModuleList(
    (0): MultiWayTransformer(
      (norm1_fused): LayerNorm((128,), eps=1e-05, elementwise_affine=True)
      (attn_fusion): MultiHeadAttention(q_dims=128, k_dims=128, v_dims=128, h_dims=128, o_dims=128, heads=8, p=0.1, bias=True)
      (norm2_video): LayerNorm((128,), eps=1e-05, elementwise_affine=True)
      (ffn_video): FFN(
        (fc1): Linear(in_features=128, out_features=512, bias=True)
        (act): GELU(approximate=none)
        (drop1): Dropout(p=0.1, inplace=False)
        (fc2): Linear(in_features=512, out_features=128, bias=True)
        (drop2): Dropout(p=0.1, inplace=False)
      )
      (norm2_text): LayerNorm((128,), eps=1e-05, elementwise_affine=True)
      (ffn_text): FFN(
        (fc1): Linear(in_features=128, out_features=512, bias=True)
        (act): GELU(approximate=none)
        (drop1): Dropout(p=0.1, inplace=False)
        (fc2): Linear(in_features=512, out_features=128, bias=True)
        (drop2): Dropout(p=0.1, inplace=False)
      )
    )
    (1): MultiWayTransformer(
      (norm1_fused): LayerNorm((128,), eps=1e-05, elementwise_affine=True)
      (attn_fusion): MultiHeadAttention(q_dims=128, k_dims=128, v_dims=128, h_dims=128, o_dims=128, heads=8, p=0.1, bias=True)
      (norm2_video): LayerNorm((128,), eps=1e-05, elementwise_affine=True)
      (ffn_video): FFN(
        (fc1): Linear(in_features=128, out_features=512, bias=True)
        (act): GELU(approximate=none)
        (drop1): Dropout(p=0.1, inplace=False)
        (fc2): Linear(in_features=512, out_features=128, bias=True)
        (drop2): Dropout(p=0.1, inplace=False)
      )
      (norm2_text): LayerNorm((128,), eps=1e-05, elementwise_affine=True)
      (ffn_text): FFN(
        (fc1): Linear(in_features=128, out_features=512, bias=True)
        (act): GELU(approximate=none)
        (drop1): Dropout(p=0.1, inplace=False)
        (fc2): Linear(in_features=512, out_features=128, bias=True)
        (drop2): Dropout(p=0.1, inplace=False)
      )
    )
    (2): MultiWayTransformer(
      (norm1_fused): LayerNorm((128,), eps=1e-05, elementwise_affine=True)
      (attn_fusion): MultiHeadAttention(q_dims=128, k_dims=128, v_dims=128, h_dims=128, o_dims=128, heads=8, p=0.1, bias=True)
      (norm2_video): LayerNorm((128,), eps=1e-05, elementwise_affine=True)
      (ffn_video): FFN(
        (fc1): Linear(in_features=128, out_features=512, bias=True)
        (act): GELU(approximate=none)
        (drop1): Dropout(p=0.1, inplace=False)
        (fc2): Linear(in_features=512, out_features=128, bias=True)
        (drop2): Dropout(p=0.1, inplace=False)
      )
      (norm2_text): LayerNorm((128,), eps=1e-05, elementwise_affine=True)
      (ffn_text): FFN(
        (fc1): Linear(in_features=128, out_features=512, bias=True)
        (act): GELU(approximate=none)
        (drop1): Dropout(p=0.1, inplace=False)
        (fc2): Linear(in_features=512, out_features=128, bias=True)
        (drop2): Dropout(p=0.1, inplace=False)
      )
    )
    (3): MultiWayTransformer(
      (norm1_fused): LayerNorm((128,), eps=1e-05, elementwise_affine=True)
      (attn_fusion): MultiHeadAttention(q_dims=128, k_dims=128, v_dims=128, h_dims=128, o_dims=128, heads=8, p=0.1, bias=True)
      (norm2_video): LayerNorm((128,), eps=1e-05, elementwise_affine=True)
      (ffn_video): FFN(
        (fc1): Linear(in_features=128, out_features=512, bias=True)
        (act): GELU(approximate=none)
        (drop1): Dropout(p=0.1, inplace=False)
        (fc2): Linear(in_features=512, out_features=128, bias=True)
        (drop2): Dropout(p=0.1, inplace=False)
      )
      (norm2_text): LayerNorm((128,), eps=1e-05, elementwise_affine=True)
      (ffn_text): FFN(
        (fc1): Linear(in_features=128, out_features=512, bias=True)
        (act): GELU(approximate=none)
        (drop1): Dropout(p=0.1, inplace=False)
        (fc2): Linear(in_features=512, out_features=128, bias=True)
        (drop2): Dropout(p=0.1, inplace=False)
      )
    )
    (4): MultiWayTransformer(
      (norm1_fused): LayerNorm((128,), eps=1e-05, elementwise_affine=True)
      (attn_fusion): MultiHeadAttention(q_dims=128, k_dims=128, v_dims=128, h_dims=128, o_dims=128, heads=8, p=0.1, bias=True)
      (norm2_video): LayerNorm((128,), eps=1e-05, elementwise_affine=True)
      (ffn_video): FFN(
        (fc1): Linear(in_features=128, out_features=512, bias=True)
        (act): GELU(approximate=none)
        (drop1): Dropout(p=0.1, inplace=False)
        (fc2): Linear(in_features=512, out_features=128, bias=True)
        (drop2): Dropout(p=0.1, inplace=False)
      )
      (norm2_text): LayerNorm((128,), eps=1e-05, elementwise_affine=True)
      (ffn_text): FFN(
        (fc1): Linear(in_features=128, out_features=512, bias=True)
        (act): GELU(approximate=none)
        (drop1): Dropout(p=0.1, inplace=False)
        (fc2): Linear(in_features=512, out_features=128, bias=True)
        (drop2): Dropout(p=0.1, inplace=False)
      )
    )
    (5): MultiWayTransformer(
      (norm1_fused): LayerNorm((128,), eps=1e-05, elementwise_affine=True)
      (attn_fusion): MultiHeadAttention(q_dims=128, k_dims=128, v_dims=128, h_dims=128, o_dims=128, heads=8, p=0.1, bias=True)
      (norm2_video): LayerNorm((128,), eps=1e-05, elementwise_affine=True)
      (ffn_video): FFN(
        (fc1): Linear(in_features=128, out_features=512, bias=True)
        (act): GELU(approximate=none)
        (drop1): Dropout(p=0.1, inplace=False)
        (fc2): Linear(in_features=512, out_features=128, bias=True)
        (drop2): Dropout(p=0.1, inplace=False)
      )
      (norm2_text): LayerNorm((128,), eps=1e-05, elementwise_affine=True)
      (ffn_text): FFN(
        (fc1): Linear(in_features=128, out_features=512, bias=True)
        (act): GELU(approximate=none)
        (drop1): Dropout(p=0.1, inplace=False)
        (fc2): Linear(in_features=512, out_features=128, bias=True)
        (drop2): Dropout(p=0.1, inplace=False)
      )
    )
  )
  (norm_video): LayerNorm((128,), eps=1e-05, elementwise_affine=True)
  (norm_text): LayerNorm((128,), eps=1e-05, elementwise_affine=True)
  (fc_video): Sequential(
    (0): Linear(in_features=128, out_features=128, bias=True)
    (1): ReLU(inplace=True)
    (2): Dropout(p=0.5, inplace=False)
    (3): Linear(in_features=128, out_features=1, bias=True)
  )
  (fc_text): Sequential(
    (0): Linear(in_features=128, out_features=128, bias=True)
    (1): ReLU(inplace=True)
    (2): Dropout(p=0.5, inplace=False)
    (3): Linear(in_features=128, out_features=1, bias=True)
  )
)
[2026-02-20 09:56:16,919] [Train] Epoch: 1/15 Iter: 5/34 LR: 0.0010 Time: 1.081 Data: 0.060 Loss: 0.0571/0.0653/0.0426/0.0045/0.1696 R1: 0.2697 R2: 0.1233 RL: 0.2528 Cos: 0.6236
[2026-02-20 09:56:21,455] [Train] Epoch: 1/15 Iter: 10/34 LR: 0.0010 Time: 0.994 Data: 0.048 Loss: 0.0483/0.0467/0.0422/0.0044/0.1417 R1: 0.2643 R2: 0.1201 RL: 0.2493 Cos: 0.6213
…
